…
---------------- When calculating the CategoricalCrossentropy loss and the derivative of the Softmax layer, the gradient disappears when backpropagating the actual value, so the SoftmaxCategoricalCrossentropy is implemented instead. ------------------------------------------------------------ \"so the \\033[34mSoftmaxCategoricalCrossentropy\\033[0m is implemented instead.\\n\" + '-'*60) In [11]: model . summary () ----------------------------------------------------------------- Layer (type) Output Shape Param # ================================================================= input_1 (Input) (None, 28, 28, 1) 0 ----------------------------------------------------------------- conv2d_1 (Conv2D) (None, 26, 26, 32) 320 ----------------------------------------------------------------- conv2d_2 (Conv2D) (None, 24, 24, 64) 18496 ----------------------------------------------------------------- maxpooling2d_1 (MaxPooling2D (None, 12, 12, 64) 0 ----------------------------------------------------------------- dropout_1 (Dropout) (None, 12, 12, 64) 0 ----------------------------------------------------------------- flatten_1 (Flatten) (None, 9216) 0 ----------------------------------------------------------------- dense_1 (Dense) (None, 128) 1179776 ----------------------------------------------------------------- dropout_2 (Dropout) (None, 128) 0 ----------------------------------------------------------------- dense_2 (Dense) (None, 10) 1290 ================================================================= Total params: 1,199,882 Trainable params: 1,199,882 Non-trainable params: 0 ----------------------------------------------------------------- In [12]: model . fit ( x_train , y_train , batch_size = batch_size , epochs = epochs , verbose = 1 , validation_data = ( x_test , y_test ) ) Epoch 01/20 | 63/63[####################]100.00% -
…
